archs/baseline/checkpoints/protonet_baseline_py312.pt (torch, 373907 bytes, 14 tensors)

encoder.conv_block.0.weight f4 [64, 1, 3, 3]
0.030619623 -0.03899529 -0.011355716 -0.21841253 0.20221789 0.07067545 0.52215624 0.5524343
-0.011199248 0.023060363 0.011658247 0.2140354 0.25728756 -0.20509368 -0.005795609 -0.17233042
0.27770424 -0.1141992 -0.31973663 -0.08684672 0.017682519 -0.34517372 -0.31187245 0.39070952
0.21748629 0.084990226 -0.16109414 0.066472776 -0.4059509 -0.15283433 -0.31033358 -0.11425691
0.17971593 -0.09990942 -0.11148087 0.28765547 -0.14396507 -0.13369013 -0.1819518 -0.14005838
-0.5480916 0.27166593 -0.28937504 -0.13781735 0.025275288 0.086066455 -0.1294652 -0.086900495
-0.044385914 -0.37779108 0.2710368 -0.20686425 -0.1953145 0.36506996 0.10150682 0.18861452
0.195444 0.006694582 0.039373644 -0.090547204 0.21385846 -0.174203 -0.31540862 -0.20357953
0.15678811 0.007824574 0.39403155 -0.29352248 -0.33586913 0.33181465 0.28274608 -0.17349409
0.03768195 -0.33078998 -0.15168501 0.012200682 -0.15760563 -0.03383944 -0.17104885 -0.1495275
0.41199887 0.082149476 0.2734728 -0.1054933 -0.13123062 -0.023168368 -0.38638833 -0.046823747
0.1395673 -0.17375599 -0.28863758 -0.02412527 0.18372291 0.017076554 -0.14525916 -0.35223928
0.042501997 -0.043451622 -0.24876608 -0.28877497 -0.3811166 0.1718742 -0.10154648 -0.031445343
-0.03376536 0.17831516 -0.23275316 0.16679454 -0.52589905 0.05065665 0.018741379 -0.2625456
-0.043761507 -0.12614606 -0.32616344 0.2639421 0.12042022 -0.20207228 -0.06208113 0.27931908
-0.10733202 0.31714007 0.19182155 0.30141678 -0.27343985 -0.36484057 -0.031807993 -0.29925334
-0.0032895596 0.10576437 -0.30368537 0.037903786 -0.23566075 -0.05515352 0.37143624 0.0905407
-0.24026327 0.004954515 -0.34297183 -0.24564214 0.047601353 -0.004725987 -0.104647115 0.26520085
0.20249291 0.07160223 -0.37170735 0.25420967 0.23131464 -0.17435488 -0.2863788 -0.07776148
-0.032943163 0.014218572 0.33774254 0.3037393 -0.27060562 0.114490286 -0.351117 -0.25948897
-0.0049997247 0.15962175 0.021285007 -0.19403507 -0.01930944 0.23998895 -0.14498492 0.10811518
-0.016641567 -0.181693 -0.08266358 -0.26452628 -0.06443865 -0.12999219 -0.35327008 -0.044614088
0.16044247 0.12976615 -0.30403316 0.2236644 -0.071983546 0.21582237 0.107145056 0.19628133
0.07722315 0.16500263 -0.032126557 -0.22993635 -0.24832515 0.13862343 0.11159839 -0.10628355
-0.35455304 0.33827144 0.18699515 -0.021644237 0.19314511 0.19113785 -0.061819203 -0.1075156
0.19188581 0.097365715 0.3357549 -0.35434675 0.101988435 0.36230773 -0.36887512 0.024149813
-0.0047358 0.14175425 0.22527742 0.31689876 0.21294224 -0.39653277 0.050280288 0.08790637
0.011419357 -0.1253052 0.26302677 0.1266024 0.43995202 -0.0708007 -0.08026435 -0.287178
-0.14726982 0.22549638 0.18081458 0.29944342 0.25800738 -0.0065465122 -0.13659002 -0.377242
-0.09244746 -0.38737798 -0.23633231 -0.47462693 -0.08269008 -0.3932945 -0.077089116 0.18713048
0.1858469 -0.18010524 0.03990234 -0.0029476273 -0.037370093 -0.053465724 -0.06688803 -0.21442817
0.09198198 0.20693411 -0.02125349 0.34486148 -0.05765878 -0.19894546 0.33195964 -0.28124037
00000000: 01d6 fa3c 86b9 1fbd 530d 3abc 89a7 5fbe
00000010: 3512 4f3e 4abe 903d 08ac 053f 566c 0d3f
00000020: 0d7d 37bc 16e9 bc3c 3b02 3f3c 192c 5b3e
00000030: 32bb 833e 1404 52be 18e9 bdbb 6377 30be
00000040: 402f 8e3e 45e1 e9bd 85b4 a3be b1dc b1bd
00000050: eeda 903c 9cba b0be bfad 9fbe 140b c83e
00000060: bab4 5e3e 5b0f ae3d ddf5 24be e122 883d
00000070: ccd8 cfbe 9a80 1cbe 0be4 9ebe 87ff e9bd
00000080: 7407 383e 4f9d ccbd 1550 e4bd 9447 933e
00000090: 946b 13be 11e6 08be 9351 3abe 776b 0fbe
000000a0: bb4f 0cbf cc17 8b3e f728 94be fe1f 0dbe
000000b0: 1f0e cf3c 9c43 b03d 8692 04be e3f8 b1bd
000000c0: 01ce 35bd d56d c1be 56c5 8a3e 39d4 53be
000000d0: 8600 48be 73ea ba3e cfe2 cf3d 2a24 413e
000000e0: 7922 483e 395e db3b 4246 213d d070 b9bd
000000f0: b6fd 5a3e 4562 32be 3d7d a1be 2777 50be
00000100: 108d 203e a432 003c 81be c93e 9448 96be
00000110: 0af7 abbe 9ce3 a93e 18c4 903e 6fa8 31be
00000120: 6358 1a3d 4e5d a9be 5153 1bbe 5fe5 473c
00000130: 5f63 21be 3a9b 0abd 6e27 2fbe bd1d 19be
00000140: 84f1 d23e fc3d a83d a004 8c3e df0c d8bd
00000150: 5261 06be 97cb bdbc b1d4 c5be 42ca 3fbd
00000160: bbea 0e3e 17ed 31be 4ec8 93be 5ca2 c5bc
00000170: dc21 3c3e 21e4 8b3c d1be 14be b558 b4be
00000180: 9316 2e3d 54fa 31bd 89bc 7ebe 50da 93be
00000190: b721 c3be caff 2f3e 9af7 cfbd d5cc 00bd
000001a0: 8c4d 0abd 4098 363e d856 6ebe 30cc 2a3e
000001b0: 52a1 06bf 597d 4f3d 8587 993c 606c 86be
000001c0: 443f 33bd 6f2c 01be e5fe a6be 6b23 873e
000001d0: e09e f63d 09ec 4ebe c848 7ebd e902 8f3e
000001e0: e4d0 dbbd 2f60 a23e de6c 443e 4d53 9a3e
000001f0: 4f00 8cbe 62cc babe 1949 02bd bc37 99be
00000200: a795 57bb fd9a d83d a67c 9bbe 0041 1b3d
00000210: 0d51 71be a8e8 61bd e42c be3e 676d b93d
00000220: 9307 76be 7c59 a23b 019a afbe 9d89 7bbe
00000230: a3f9 423d 74dc 9abb 3a51 d6bd 68c8 873e
00000240: 4d5a 4f3e 31a4 923d 6d50 bebe c527 823e
00000250: bfdd 6c3e 168a 32be 3ea0 92be 6941 9fbd
00000260: 69ef 06bd 03f5 683c 97ec ac3e b883 9b3e
00000270: d28c 8abe e279 ea3d 9cc5 b3be bddb 84be
00000280: bbd4 a3bb e273 233e e55d ae3c 21b1 46be
00000290: d52e 9ebc aabf 753e ed76 14be 7e6b dd3d
000002a0: e553 88bc bb0d 3abe 864b a9bd fd6f 87be
000002b0: 69f8 83bd ac1c 05be d1df b4be 43bd 36bd
000002c0: 084b 243e 6be1 043e 3caa 9bbe 4808 653e
000002d0: 1c6c 93bd 8a00 5d3e de6e db3d f9fd 483e
000002e0: 2c27 9e3d 73f6 283e 2397 03bd 6f74 6bbe
000002f0: f348 7ebe 4df3 0d3e b28d e43d 31ab d9bd
00000300: fa87 b5be ea31 ad3e a87b 3f3e 414f b1bc
00000310: d5c7 453e a4b9 433e 2236 7dbd 2431 dcbd
00000320: b77d 443e ad67 c73d 11e8 ab3e f06c b5be
00000330: 50df d03d 6680 b93e 33dd bcbe d4d5 c53c
00000340: c52e 9bbb 0728 113e 20af 663e 8e40 a23e
00000350: 880d 5a3e 5806 cbbe b4f2 4d3d 4108 b43d
00000360: 4118 3b3c 0250 00be 72ab 863e 0fa4 013e
00000370: 6441 e13e f5ff 90bd a361 a4bd ff08 93be
00000380: e6cd 16be 86e8 663e 7527 393e a650 993e
00000390: 8b19 843e 2084 d6bb 41de 0bbe dd25 c1be
000003a0: 1855 bdbd 6856 c6be 1901 72be 4d02 f3be
000003b0: 6b59 a9bd e65d c9be e6e0 9dbd 229f 3f3e
000003c0: a64e 3e3e 826d 38be a370 233d fb2c 41bb
000003d0: 6211 19bd e0fe 5abd 97fc 88bd 0f93 5bbe
000003e0: 0c61 bc3d 89e6 533e cd1b aebc af91 b03e
000003f0: 9d2b 6cbd 5cb8 4bbe 9df6 a93e bdfe 8fbe

encoder.conv_block.0.bias f4 [64]
-0.283131 0.086900815 -0.16752408 -0.30553883 0.09306023 -0.1934415 -0.24162336 0.086086124
0.16085196 0.37433323 0.20676392 -0.24391373 0.0072748726 0.15444238 0.06638033 -0.06401726
-0.16245309 0.18824343 -0.02571872 0.019316211 0.2756466 0.032829035 0.3660201 -0.11725356
-0.34119043 0.17012459 0.33216316 -0.19910392 -0.33891478 -0.38785535 -0.28234127 -0.23377217
-0.021243008 0.14706828 -0.04956848 0.2680707 -0.13993515 0.25358307 -0.18725555 0.32415822
-0.28599858 0.1807618 0.33171937 -0.30848482 -0.099646404 -0.20560975 -0.00040920952 0.13019162
-0.12880594 0.14733559 0.216752 -0.28028294 -0.07922133 -0.31794268 0.14832358 -0.34393725
0.11672116 -0.07535085 -0.21536702 -0.015209836 0.039272413 0.025289992 0.22082983 0.24459754
00000000: 8cf6 90be 0ef9 b13d 6f8b 2bbe 966f 9cbe
00000010: 5d96 be3d 8715 46be 1d6c 77be ec4d b03d
00000020: 60b6 243e 9ba8 bf3e ecb9 533e 85c4 79be
00000030: 0e62 ee3b 2526 1e3e 69f2 873d 7b1b 83bd
00000040: 1a5a 26be e3c2 403e 11b0 d2bc 083d 9e3c
00000050: 8d21 8d3e bd77 063d fd66 bb3e a222 f0bd
00000060: 83b0 aebe 2435 2e3e 4a11 aa3e e6e1 4bbe
00000070: 3d86 adbe fa94 c6be 098f 90be f961 6fbe
00000080: d105 aebc 1199 163e 5208 4bbd 9040 893e
00000090: 294b 0fbe a4d5 813e ebbf 3fbe 11f8 a53e
000000a0: 686e 92be 9f19 393e 1fd7 a93e b9f1 9dbe
000000b0: 6a13 ccbd 5d8b 52be 2c8b d6b9 f450 053e
000000c0: b4e5 03be 24df 163e 3cf4 5d3e 3f81 8fbe
000000d0: cb3e a2bd 62c9 a2be 23e2 173e 8b18 b0be
000000e0: 810b ef3d 8c51 9abd 2c89 5cbe ad32 79bc
000000f0: 1cdc 203d f52c cf3c 3721 623e c777 7a3e

encoder.conv_block.1.weight f4 [64]
0.98605347 1.0800123 0.51841897 0.5994291 0.55677533 0.66055584 1.1046127 1.4908919
0.5053983 1.1641293 0.732263 0.59058386 0.49656883 1.3172332 0.62821096 0.5782691
1.0091859 0.8927175 0.61681986 0.54845965 1.2010272 0.95494753 1.5095258 0.9063161
1.3023039 1.4033912 0.5819636 0.9739384 0.95035994 1.1516347 1.091652 0.82881814
1.0428611 0.444835 1.1076007 1.1237384 0.9808577 0.54362863 0.56639636 1.462475
0.61019355 0.42500123 0.4018673 0.42307985 1.3564246 1.1025176 0.59888947 1.2536609
0.546641 1.2114531 1.6169132 0.7981643 1.0385439 0.54714745 1.6557338 0.9125696
0.4864264 0.6128086 0.7051696 0.68595505 0.608463 1.0698923 0.48857674 0.74705935
00000000: 006e 7c3f d83d 8a3f 1bb7 043f 2f74 193f
00000010: d488 0e3f 301a 293f f363 8d3f 8cd5 be3f
00000020: c861 013f 3002 953f 9775 3b3f 8130 173f
00000030: 453e fe3e 199b a83f 6fd2 203f 7209 143f
00000040: 012d 813f 2289 643f e8e7 1d3f da67 0c3f
00000050: 42bb 993f 7177 743f 2438 c13f 5504 683f
00000060: e5b1 a63f 53a2 b33f 91fb 143f 0754 793f
00000070: ca4a 733f c468 933f 41bb 8b3f 6d2d 543f
00000080: 797c 853f 6ac1 e33e dcc5 8d3f a9d6 8f3f
00000090: 7d19 7b3f 3f2b 0b3f 5aff 103f 6132 bb3f
000000a0: a535 1c3f c399 d93e 8dc1 cd3e ec9d d83e
000000b0: 529f ad3f 4c1f 8d3f d250 193f f677 a03f
000000c0: aaf0 0b3f e510 9b3f 03f7 ce3f 7f54 4c3f
000000d0: 02ef 843f db11 0c3f 16ef d33f 299e 693f
000000e0: e20c f93e 06e1 1c3f ff85 343f c09a 2f3f
000000f0: 3bc4 1b3f 3bf2 883f bb26 fa3e 483f 3f3f

encoder.conv_block.1.bias f4 [64]
0.15950358 0.11339571 -0.61958414 -0.62710977 -0.6536052 -0.6301364 -0.19936065 0.062248133
-0.611165 0.12851037 -0.10890397 -0.65696955 -0.6462401 -0.28114375 -0.64572966 -0.6822609
0.13398515 0.3085959 -0.48046845 -0.6241637 0.15809199 0.08365278 -0.11105249 0.15361878
0.14636013 0.47514412 -0.6488879 0.05150134 0.28661898 0.16374606 0.08543695 -0.095092244
-0.04534059 -0.7057414 -0.13129808 0.019311327 0.06674008 -0.6473225 -0.6313252 0.02478858
-0.677843 -0.7023921 -0.6881539 -0.70650613 0.107491754 -0.011904252 -0.19243436 0.16150124
-0.619754 0.14077035 0.097505696 0.12831816 0.13952404 -0.6447768 -0.030558059 -0.16254024
-0.67041945 -0.6332411 -0.95170194 -0.59579706 -0.20956938 0.28972828 -0.7020709 -0.15726396
00000000: e854 233e 033c e83d 119d 1ebf 448a 20bf
00000010: ac52 27bf 9e50 21bf 3325 4cbe e6f7 7e3d
00000020: 4f75 1cbf 3998 033e 0b09 dfbd 282f 28bf
00000030: fe6f 25bf 13f2 8fbe 8a4e 25bf a6a8 2ebf
00000040: 6733 093e 4800 9e3e f6ff f5be 31c9 1fbf
00000050: dee2 213e 2652 ab3d 7d6f e3bd 3e4e 1d3e
00000060: 6edf 153e 1746 f33e 841d 26bf 12f3 523d
00000070: b9bf 923e 0cad 273e 91f9 ae3d b9bf c2bd
00000080: 0eb7 39bd 78ab 34bf 0173 06be ca32 9e3c
00000090: 06af 883d edb6 25bf 879e 21bf 6c11 cb3c
000000a0: 1e87 2dbf f8cf 33bf db2a 30bf 96dd 34bf
000000b0: a324 dc3d 0d0a 43bc 830d 45be 9560 253e
000000c0: 33a8 1ebf 1a26 103e 11b1 c73d d665 033e
000000d0: 64df 0e3e 1810 25bf e554 fabc f370 26be
000000e0: 9ca0 2bbf 171c 22bf bda2 73bf 2886 18bf
000000f0: 5b99 56be 4457 943e ebba 33bf ce09 21be

encoder.conv_block.1.running_mean f4 [64]
-7.291286 -1.7459793 3.1504948 3.9512887 8.376397 1.9248209 -1.348756 -0.9956511
3.5801752 2.8077714 5.7505636 3.2973335 5.348405 -0.41474307 2.7461514 3.4384334
0.9437671 0.057934016 1.7299116 4.2022324 -0.9553915 -4.302047 -0.8884648 -4.42387
-1.2785381 0.38307646 6.95343 -1.7732776 -1.7015122 -1.6125276 -1.9712951 -0.32841337
-0.24091104 6.141746 0.27386138 -1.0587547 -2.415017 7.826269 3.8813574 -1.2130777
-2.5620296 8.261451 7.0874457 10.120498 -1.4265782 0.043653406 4.2685246 -0.8727621
7.442052 -1.4771432 -1.1947811 -0.6820851 -2.2918463 4.690073 -0.86468256 0.9313926
7.9170036 3.18038 -0.55698895 -3.9676657 4.717632 -1.0130416 7.967048 3.2102847
00000000: 3752 e9c0 407c dfbf b5a1 4940 eae1 7c40
00000010: b905 0641 8860 f63f 09a4 acbf fee2 7ebf
00000020: 9721 6540 87b2 3340 9e04 b840 8307 5340
00000030: 2226 ab40 3459 d4be f2c0 2f40 4b0f 5c40
00000040: b89a 713f 384c 6d3d be6d dd3f b078 8640
00000050: 8a94 74bf 5eaa 89c0 6e72 63bf 5890 8dc0
00000060: 23a7 a3bf 9922 c43e 8082 de40 c3fa e2bf
00000070: 27cb d9bf 4e67 cebf 6653 fcbf cc25 a8be
00000080: 62b1 76be 2f89 c440 8f37 8c3e 4685 87bf
00000090: a38f 1ac0 cc70 fa40 2968 7840 2146 9bbf
000000a0: 4bf8 23c0 e72e 0441 5bcc e240 8fed 2141
000000b0: 1d9a b6bf eacd 323d c197 8840 566d 5fbf
000000c0: 4a25 ee40 0713 bdbf 96ee 98bf 219d 2ebf
000000d0: 9cad 12c0 1415 9640 d65b 5dbf bf6f 6e3f
000000e0: 1858 fd40 598b 4b40 d496 0ebf 3cee 7dc0
000000f0: d7f6 9640 59ab 81bf 0ff2 fe40 4e75 4d40

encoder.conv_block.1.running_var f4 [64]
274.3546 18.633245 64.01589 103.10343 373.55927 29.112371 12.030899 14.757701
67.08226 36.5062 166.56786 72.58059 162.83687 3.9377153 43.126816 70.09817
12.071992 9.312708 19.300028 98.91838 12.458256 106.33425 12.667135 105.97911
8.567229 15.643761 243.59528 16.94996 18.43024 12.939505 18.37388 6.7890553
4.8624883 196.13179 7.9632764 11.606268 42.419327 313.99786 93.42483 19.9153
29.92526 357.77145 250.89769 591.16364 15.324476 6.141453 100.76148 9.143923
315.01895 22.424726 18.339884 10.610584 35.64706 141.85345 16.670383 16.397627
332.66275 60.373215 8.132951 92.316734 121.82875 11.268248 326.27005 48.568626
00000000: 642d 8943 e310 9541 2308 8042 f534 ce42
00000010: 96c7 ba43 23e6 e841 907e 4041 8b1f 6c41
00000020: 1e2a 8642 5906 1242 5f91 2643 4329 9142
00000030: 3dd6 2243 8703 7c40 dc81 2c42 4332 8c42
00000040: e126 4141 da00 1541 7566 9a41 36d6 c542
00000050: 0455 4741 23ab d442 96ac 4a41 4ef5 d342
00000060: 5f13 0941 d84c 7a41 6498 7343 8599 8741
00000070: 2271 9341 3608 4f41 b5fd 9241 f13f d940
00000080: 8199 9b40 bd21 4443 29d3 fe40 46b3 3941
00000090: 64ad 2942 baff 9c43 83d9 ba42 8952 9f41
000000a0: ef66 ef41 bfe2 b243 cfe5 7a43 79ca 1344
000000b0: 0e31 7541 c886 c440 e185 c942 824d 1241
000000c0: 6d82 9d43 d765 b341 15b8 9241 f4c4 2941
000000d0: 9796 0e42 7cda 0d43 f25c 8541 572e 8341
000000e0: d554 a643 2c7e 7142 9120 0241 2ba2 b842
000000f0: 52a8 f342 be4a 3441 9122 a343 4646 4242

encoder.conv_block.4.weight f4 [128, 64, 3, 3]
-0.095391184 -0.033179466 -0.07309737 -0.063258424 -0.08666658 -0.03924456 -0.03623264 -0.03732116
-0.079997465 -0.08655476 -0.08379227 -0.08383473 -0.066959895 -0.120351255 -0.086708754 -0.044736475
-0.07210928 -0.054514043 -0.0333992 -0.063394725 -0.11769279 -0.005223863 -0.06827417 -0.08898943
-0.08491917 -0.086288735 -0.10356859 -0.0049306923 -0.09556917 -0.09908205 -0.01650798 -0.052925743
-0.16778149 -0.09662772 -0.058814373 -0.12182574 -0.061098788 -0.074058175 -0.0781486 -0.07395756
-0.06550768 -0.16041508 -0.047498588 -0.06941708 -0.16422091 -0.0338803 -0.041614573 -0.07189925
-0.039798856 -0.088210285 -0.069731526 -0.019881522 -0.09287457 -0.07358418 0.098560415 0.08628853
0.07404014 0.100824416 0.10494863 0.042133644 0.10051676 0.12851179 0.030211318 0.025205536
-0.023994772 -0.013677596 0.10710542 0.05004542 0.07953505 -0.11333291 -0.16573088 -0.19746865
-0.013735502 -0.06964301 -0.13935426 -0.04750035 -0.09980702 -0.1334202 -0.056216337 -0.13565478
-0.12337903 0.025217552 -0.047097985 -0.06372162 -0.021118179 -0.018628236 0.008163806 0.016846629
-0.031831503 -0.012409553 -0.094203174 -0.04290723 -0.047644693 -0.061759617 -0.021775631 0.007240071
-0.060204715 0.012431935 -0.057371937 -0.0059647835 -0.08486143 -0.07504789 -0.048215486 -0.08827739
-0.15855223 -0.098776214 -0.07508664 -0.13027248 -0.02334577 -0.037447758 -0.08005053 -0.057999555
-0.12422152 -0.12518375 -0.02399542 -0.11214595 -0.09597759 0.0044575264 0.009842237 0.025401795
0.1042464 0.060261127 -0.021559343 0.025787264 0.014601774 -0.03449855 -0.03062249 -0.043172467
-0.12870687 -0.0017805906 -0.07497817 -0.1506223 -0.07459574 -0.13163655 -0.10170453 -0.015156154
-0.07366272 -0.14546217 -0.028137995 -0.102447264 -0.14119557 -0.08568158 -0.08303076 -0.10167109
-0.02305701 -0.018179372 -0.030587317 -0.05262235 -0.008594787 -0.02541497 -0.040222697 -0.004043907
-0.10212183 0.062216226 0.101679966 0.08899109 0.079020284 0.017834932 0.051194184 0.06721896
0.077295326 0.049172092 -0.005506523 -0.048998207 -0.055389963 -0.065719664 -0.03718569 -0.064669155
-0.07405149 -0.07560025 -0.11879219 -0.023064753 -0.020084947 -0.1363059 -0.0062627415 -0.071064316
-0.1541107 -0.021819748 -0.12504889 -0.093564995 0.0066458057 0.010129347 -0.011718013 0.078143485
0.08986868 0.027068641 0.033726007 0.07852943 -0.0025596528 -0.034642044 -0.04665156 -0.07884174
-0.0085876295 -0.028746715 -0.11878857 -0.021564329 0.0064264988 -0.058957197 0.07751825 0.028685054
0.050026912 0.118138924 0.07735691 -0.028867885 0.16894041 0.084529534 -0.020467514 -0.085411064
-0.07370453 -0.086303644 -0.02058803 -0.04967751 -0.046824604 0.00586053 -0.024478165 -0.046725743
0.023211801 0.010606889 0.053381342 0.016815327 0.062111832 0.06886288 0.09813825 0.00096984574
0.026913473 0.07722255 0.08873366 0.06139592 0.095371604 0.09739591 0.06678438 0.098124325
0.055241693 0.008475985 -0.028678613 -0.034541223 -0.066785365 -0.017036555 -0.05996268 -0.09278951
-0.029407378 -0.0859049 -0.16219942 -0.07652073 -0.022884775 -0.041368727 -0.029411064 -0.028430764
-0.03324752 -0.14780709 -0.14109531 -0.1689393 0.08974596 0.03328371 -0.028267736 0.06653273
00000000: 745c c3bd 31e7 07bd 13b4 95bd a28d 81bd
00000010: 3f7e b1bd e7be 20bd ad68 14bd 13de 18bd
00000020: b6d5 a3bd 9f43 b1bd 489b abbd 8bb1 abbd
00000030: 4522 89bd b87a f6bd 5c94 b1bd 983d 37bd
00000040: 08ae 93bd 1e4a 5fbd 99cd 08bd 18d5 81bd
00000050: eb08 f1bd f02c abbb 54d3 8bbd 1740 b6bd
00000060: 1aea adbd 26b8 b0bd c51b d4bd a591 a1bb
00000070: c5b9 c3bd 88eb cabd be3b 87bc aac8 58bd
00000080: e9ce 2bbe c1e4 c5bd 57e7 70bd c67f f9bd
00000090: b942 7abd d0ab 97bd 600c a0bd 1077 97bd
000000a0: e428 86bd da43 24be e18d 42bd 8b2a 8ebd
000000b0: 8729 28be 12c6 0abd 0b74 2abd ea3f 93bd
000000c0: 2004 23bd 98a7 b4bd 67cf 8ebd 93de a2bc
000000d0: 0635 bebd 4db3 96bd 0bda c93d 0ab8 b03d
000000e0: 5ba2 973d 087d ce3d 4fef d63d 5494 2c3d
000000f0: bbdb cd3d 9898 033e ba7d f73c d77b ce3c
00000100: af90 c4bc ff17 60bc 165a db3d 6dfc 4c3d
00000110: 46e3 a23d 161b e8bd 5bb5 29be 3935 4abe
00000120: df0a 61bc ffa0 8ebd e2b2 0ebe ba8f 42bd
00000130: 9f67 ccbd 4e9f 08be 1a43 66bd 16e9 0abe
00000140: 25ae fcbd 0a95 ce3c d1e9 40bd 7b80 82bd
00000150: 0800 adbc 3e9a 98bc 7cc1 053c f101 8a3c
00000160: c061 02bd 7051 4bbc 98ed c0bd 7ebf 2fbd
00000170: 1527 43bd a7f7 7cbd cf62 b2bc 1e3e ed3b
00000180: 3899 76bd 51af 4b3c d6fe 6abd 3b74 c3bb
00000190: d4cb adbd b5b2 99bd 9a7d 45bd c7ca b4bd
000001a0: 845b 22be 2f4b cabd 06c7 99bd 2666 05be
000001b0: a13f bfbc d262 19bd 88f1 a3bd f190 6dbd
000001c0: da67 febd 2b30 00be 0b92 c4bc c7ac e5bd
000001d0: e68f c4bd 7110 923b 5641 213c 6d17 d03c
000001e0: 237f d53d 5fd4 763d 389d b0bc d03f d33c
000001f0: 473c 6f3c 5a4e 0dbd 04dc fabc 9dd5 30bd
00000200: bccb 03be b562 e9ba 288e 99bd bb3c 1abe
00000210: a7c5 98bd bbcb 06be 774a d0bd 8451 78bc
00000220: 7bdc 96bd 09f4 14be a781 e6bc dfcf d1bd
00000230: 9295 10be d379 afbd 080c aabd ef38 d0bd
00000240: 0ee2 bcbc e8ec 94bc 4192 fabc 898a 57bd
00000250: 26d1 0cbc 0e33 d0bc 8ec0 24bd c082 84bb
00000260: 4025 d1bd 71d6 7e3d 963d d03d f640 b63d
00000270: 63d5 a13d 901a 923c feb0 513d 18aa 893d
00000280: 034d 9e3d ad68 493d 1070 b4bb 58b2 48bd
00000290: 96e0 62bd 0898 86bd 0650 18bd 4371 84bd
000002a0: 4fa8 97bd 4ed4 9abd 5249 f3bd 4bf2 bcbc
000002b0: 3089 a4bc c693 0bbe af37 cdbb 2b8a 91bd
000002c0: 32cf 1dbe 54bf b2bc d10c 00be 019f bfbd
000002d0: 0fc5 d93b 90f5 253c e9fc 3fbc b109 a03d
000002e0: 120d b83d 0ebf dd3c 4824 0a3d 0ad4 a03d
000002f0: d9bf 27bb d1e4 0dbd b515 3fbd c777 a1bd
00000300: 21b3 0cbc 3b7e ebbc 6c47 f3bd ada7 b0bc
00000310: 6195 d23b 1a7d 71bd e3c1 9e3d ebfc ea3c
00000320: 05e9 4c3d d2f2 f13d 4d6d 9e3d 587c ecbc
00000330: b7fe 2c3e d21d ad3d 7dab a7bc ffeb aebd
00000340: 67f2 96bd f7bf b0bd 3aa8 a8bc a57a 4bbd
00000350: 28cb 3fbd b009 c03b 6f86 c8bc 7e63 3fbd
00000360: ad26 be3c 84c8 2d3c 65a6 5a3d 4cc0 893c
00000370: fa68 7e3d fb07 8d3d b5fc c83d 3f3d 7e3a
00000380: a579 dc3c db26 9e3d feb9 b53d 4a7a 7b3d
00000390: 3052 c33d 8277 c73d 40c6 883d 68f5 c83d
000003a0: 1d45 623d dcde 0a3c 69ef eabc 197b 0dbd
000003b0: c4c6 88bd 3f90 8bbc 6d9b 75bd 6d08 bebd
000003c0: bee7 f0bc e9ee afbd 9b17 26be e7b6 9cbd
000003d0: da78 bbbc 4172 29bd 79ef f0bc a2e7 e8bc
000003e0: 8d2e 08bd be5a 17be 4a7b 10be 6dfe 2cbe
000003f0: bbcc b73d 8054 083d bd91 e7bc 5042 883d

encoder.conv_block.4.bias f4 [128]
-0.012444019 0.07968167 0.025450524 0.05340918 -0.0050550736 0.168154 -0.0085772965 -0.027016882
-0.052355908 -0.05748761 0.04329444 -0.025172275 -0.05194786 0.0018854425 0.062829405 0.06626223
-0.022774218 0.052923914 -0.036542032 -0.04362507 0.02905552 0.09385588 0.0643672 -0.046297554
-0.039048955 -0.021378566 -0.036987074 -0.004305058 0.047466572 0.041721117 0.06028616 -0.004956589
-0.030279784 -0.09886671 0.098785035 -0.0075214934 0.0013744591 0.028340984 -0.0056592915 0.0075681373
0.086310364 0.0061594434 0.086840324 0.012240034 0.034537446 -0.05762138 0.04495882 0.0053793336
0.046639055 0.039749663 -0.039343823 0.034469094 0.01264934 0.023268128 -0.018929373 0.0024294995
0.10131077 0.0064335256 0.036619686 -0.04646448 0.009174103 0.013507787 0.009368809 -0.004463028
0.02132697 0.0800934 -0.052122444 -0.007312483 0.07283842 0.03127665 -0.010293006 -0.017933307
0.005396782 -0.027378486 0.0052223476 -0.0131503055 0.008773644 0.06280206 -0.037575077 0.012221416
-0.016142402 -0.002060722 -0.03413797 0.016612818 -0.034040794 -0.015482356 0.048132952 0.00268685
-0.016613014 -0.0043902127 -0.06265437 0.016567312 0.027197974 0.037084427 -0.050697874 0.023393989
-0.019724907 0.030146617 -0.14124015 0.013771786 0.009832783 -0.042085357 0.052214477 -0.036523905
-0.011987153 -0.020350244 0.020021595 0.11992419 0.033470232 0.03640594 -0.059347298 0.038327802
-0.0417786 0.009304735 0.01664962 -0.02494113 -0.03765029 -0.0576742 -0.021838842 0.010245373
-0.028490057 -0.0035711485 0.026996627 -0.08024405 0.069867425 -0.008279769 -0.02259446 -0.0037727444
00000000: 00e2 4bbc 2530 a33d 9e7d d03c 96c3 5a3d
00000010: 08a5 a5bb 9030 2c3e ca87 0cbc 8252 ddbc
00000020: 2673 56bd 2178 6bbd 8355 313d 1636 cebc
00000030: 47c7 54bd f420 f73a b4ac 803d 7eb4 873d
00000040: ff90 babc bfc6 583d 19ad 15bd 34b0 32bd
00000050: d805 ee3c 8337 c03d f3d2 833d 81a2 3dbd
00000060: ccf1 1fbd 1a22 afbc c27f 17bd 7211 8dbb
00000070: 4f6c 423d c3e3 2a3d 9fee 763d e26a a2bb
00000080: 4f0d f8bc a17a cabd cf4f ca3d dc76 f6bb
00000090: 3227 b43a 5a2b e83c 9471 b9bb 23fe f73b
000000a0: 7dc3 b03d 28d5 c93b 57d9 b13d 6c8a 483c
000000b0: 2377 0d3d 6504 6cbd bd26 383d 1f45 b03b
000000c0: 9808 3f3d 8bd0 223d fd26 21bd 772f 0d3d
000000d0: 2d3f 4f3c cd9c be3c c611 9bbc 3d38 1f3b
000000e0: 057c cf3d 53d0 d23b 86fe 153d 8a51 3ebd
000000f0: fa4e 163c c44f 5d3c a27f 193c 983e 92bb
00000100: e6b5 ae3c 0208 a43d 587e 55bd 8e9d efbb
00000110: 4f2c 953d f21b 003d ffa3 28bc dfe8 92bc
00000120: 7dd7 b03b d948 e0bc 3a20 ab3b 6174 57bc
00000130: 55bf 0f3c 5e9e 803d 53e8 19bd 563c 483c
00000140: 123d 84bc 2e0d 07bb 42d4 0bbd 9b17 883c
00000150: 5c6e 0bbd b5a9 7dbc 0f27 453d dd15 303b
00000160: 0418 88bc c6db 8fbb ef50 80bd 2cb8 873c
00000170: 49ce de3c d7e5 173d 93a8 4fbd c0a4 bf3c
00000180: 2196 a1bc 0af6 f63c 42a1 10be 0fa3 613c
00000190: ae19 213c b261 2cbd d9de 553d 179a 15bd
000001a0: c465 44bc 8eb5 a6bc 5404 a43c d09a f53d
000001b0: 1518 093d 651e 153d 2716 73bd 9dfd 1c3d
000001c0: 0a20 2bbd e372 183c c964 883c 5751 ccbc
000001d0: 3137 1abd c83b 6cbd 5fe7 b2bc 35dc 273c
000001e0: fb63 e9bc ee09 6abb 0828 dd3c fe56 a4bd
000001f0: a716 8f3d dea7 07bc 0418 b9bc 2640 77bb

encoder.conv_block.5.weight f4 [128]
0.7810067 1.0997078 1.0498095 1.0159727 0.8847783 0.9450716 0.87161595 0.9786525
1.012624 0.6827641 0.88649046 1.0297298 0.8546875 0.9664268 1.0589935 1.1652734
0.74452364 1.0996413 0.8689992 0.8636434 1.0167948 0.9081579 0.8533495 1.0629115
0.99180216 1.0904849 0.8587169 0.874343 0.87619865 0.8920428 1.0665467 0.96004003
0.7663508 1.1085815 0.875507 1.0403594 0.90616745 0.8282969 0.8553828 0.88063943
1.0670735 1.1006545 0.95614207 1.0406291 1.0942738 1.1626265 1.099451 0.9424052
0.98290426 0.83837235 0.938839 0.7695836 0.96329916 0.891614 0.85020745 0.905346
0.8461913 0.8993231 0.9885158 0.9639913 1.2005138 0.8265091 0.86009824 0.93567866
0.9263854 0.8124443 1.0133377 1.0188646 1.037336 0.77824163 0.9369177 0.80284
0.7758518 1.0061458 1.1442937 0.8608109 0.92355096 0.9999407 0.88097405 1.0409942
0.79087573 1.0969294 0.94062793 0.9266382 0.7562703 1.07654 0.9056928 0.8543982
0.9911253 1.0303643 0.865983 0.81787825 0.77483076 0.7959497 0.7712773 1.0764539
1.0969996 1.0017414 1.1463459 1.0843327 1.1251297 0.9508162 0.8557024 1.0325485
0.87252843 0.9267654 1.0946231 1.2041019 1.1188148 0.718579 0.7754451 0.74860126
0.78070855 0.83915126 0.97826487 1.113158 0.8822374 1.067583 1.1168064 1.0361743
0.998921 1.0081959 1.0284274 0.8811606 0.86627257 0.96323025 0.91056484 0.9629994
00000000: 0ef0 473f 3ac3 8c3f 2860 863f 650b 823f
00000010: d580 623f 36f0 713f 3922 5f3f f888 7a3f
00000020: aa9d 813f a1c9 2e3f 0af1 623f 30ce 833f
00000030: cdcc 5a3f bf67 773f 198d 873f ae27 953f
00000040: 1a99 3e3f 0cc1 8c3f bb76 5e3f bc17 5d3f
00000050: 5526 823f 097d 683f 1d75 5a3f 7c0d 883f
00000060: bfe6 7d3f 0295 8b3f dfd4 5b3f f1d4 5f3f
00000070: 8e4e 603f eb5c 643f 9a84 883f 2fc5 753f
00000080: 912f 443f 00e6 8d3f 3a21 603f 7f2a 853f
00000090: 97fa 673f 440b 543f 5efa 5a3f 9671 613f
000000a0: dd95 883f 3fe2 8c3f bac5 743f 5633 853f
000000b0: 2a11 8c3f f2d0 943f cfba 8c3f 7841 713f
000000c0: 9d9f 7b3f 929f 563f c157 703f 6e03 453f
000000d0: c69a 763f d140 643f 32a7 593f c1c4 673f
000000e0: fe9f 583f 0a3a 663f 5f0f 7d3f 22c8 763f
000000f0: 70aa 993f 1a96 533f 662f 5c3f a388 6f3f
00000100: 9827 6d3f 5afc 4f3f 0db5 813f 286a 823f
00000110: 6dc7 843f d83a 473f d7d9 6f3f ec86 4d3f
00000120: 399e 463f 63c9 803f 3778 923f 1a5e 5c3f
00000130: d66d 6c3f 1dfc 7f3f 8487 613f 4c3f 853f
00000140: d576 4a3f 2f68 8c3f fecc 703f 2938 6d3f
00000150: ee9a 413f 10cc 893f 7cdb 673f d7b9 5a3f
00000160: 63ba 7d3f fae2 833f 10b1 5d3f 7860 513f
00000170: 4f5b 463f 5cc3 4b3f 6e72 453f 3ec9 893f
00000180: 7c6a 8c3f 1039 803f 76bb 923f 6acb 8a3f
00000190: 4004 903f b168 733f 500f 5b3f 8d2a 843f
000001a0: 065e 5f3f 7f40 6d3f 9c1c 8c3f 0320 9a3f
000001b0: 5335 8f3f cbf4 373f 9283 463f 55a4 3f3f
000001c0: 84dc 473f 9ed2 563f 916f 7a3f f67b 8e3f
000001d0: 4fda 613f 8fa6 883f 83f3 8e3f 5ca1 843f
000001e0: 49b9 7f3f 900c 813f 82a3 833f be93 613f
000001f0: 0ac4 5d3f 4296 763f c71a 693f 2187 763f

encoder.conv_block.5.bias f4 [128]
-0.20925447 0.05668153 -0.12280908 0.002883097 -0.109304234 0.007223868 -0.06143952 -0.115053035
0.025852649 -0.22558749 -0.09734726 0.00027770796 -0.07219114 -0.08091802 -0.053891096 0.009380683
-0.16075243 0.03441908 -0.097259805 -0.08314382 0.000525471 -0.13364145 -0.14263979 -0.06760024
-0.13100778 0.03102744 -0.07557671 -0.08089916 -0.1126469 -0.198739 0.06546239 -0.029567633
-0.06965436 0.043873202 -0.12809479 -0.11137849 0.045104615 -0.14785688 -0.076692715 -0.084161125
0.047044054 -0.015663266 -0.02629101 -0.005919061 0.011437205 0.010709417 -0.006983936 -0.020932822
-0.07461903 -0.024277179 -0.09396919 -0.10439044 -0.04938596 -0.14205192 -0.05376626 -0.0526249
-0.21863592 -0.010417092 -0.12311868 -0.033323456 -0.053732406 -0.25542474 -0.17262731 -0.049069528
0.076754294 -0.011455067 -0.06994263 0.027070843 -0.014594967 -0.033623394 0.019867416 -0.091037795
-0.09892471 -0.021626696 0.021678647 -0.057675928 -0.14387506 -0.03871638 -0.13798441 -0.013396583
-0.029679073 -0.07101238 -0.4258338 -0.083584264 -0.14617498 -0.009736451 -0.118568026 -0.032045055
-0.07090163 0.020255592 0.02626748 -0.1388056 -0.18084174 -0.08355633 -0.26276892 -0.03470348
-0.18503436 -0.039974898 0.011241413 -0.090800054 -0.10279985 0.055297486 -0.086353034 -0.06783121
-0.064725764 -0.13512726 -0.074868046 0.008312533 -0.09267883 -0.23481886 -0.1572316 -0.09831775
-0.12454849 0.0014221872 -0.2206162 -0.0081618605 -0.15180999 -0.022481993 -0.06642279 0.04388791
-0.110527664 -0.042856947 -0.14333494 -0.08296484 -0.06701075 0.036961537 0.03448148 0.025855184
00000000: ce46 56be e42a 683d 5483 fbbd 57f2 3c3b
00000010: e6da dfbd 32b6 ec3b 02a8 7bbd eda0 ebbd
00000020: efc8 d33c 6800 67be 005e c7bd 5599 9139
00000030: f3d8 93bd 59b8 a5bd e9bc 5cbd 70b1 193c
00000040: 499c 24be 05fb 0c3d 2630 c7bd 4f47 aabd
00000050: c3bf 093a 4ed9 08be 2a10 12be ff71 8abd
00000060: e726 06be 422d fe3c f6c7 9abd 75ae a5bd
00000070: 6bb3 e6bd 3d82 4bbe 2511 863d d237 f2bc
00000080: f2a6 8ebd 63b4 333d 482b 03be 681a e4bd
00000090: 9ebf 383d cb67 17be 1211 9dbd ab5c acbd
000000a0: 44b1 403d 4050 80bc 3f60 d7bc aff4 c1bb
000000b0: 1d63 3b3c 8d76 2f3c 80d9 e4bb 4f7b abbc
000000c0: ddd1 98bd efe0 c6bc eb72 c0bd a8ca d5bd
000000d0: ef48 4abd 0f76 11be 033a 5cbd 358d 57bd
000000e0: 18e2 5fbe 73ac 2abc a625 fcbd 2d7e 08bd
000000f0: 8316 5cbd 08c7 82be 37c5 30be 21fd 48bd
00000100: 5b31 9d3d 09ae 3bbc 153e 8fbd acc3 dd3c
00000110: ba1f 6fbc afb8 09bd fec0 a23c 0672 babd
00000120: 0a99 cabd 782a b1bc 6b97 b13c 983d 6cbd
00000130: fc53 13be 1195 1ebd c94b 0dbe 577d 5bbc
00000140: 8721 f3bc f06e 91bd e306 dabe 3a2e abbd
00000150: e5ae 15be a385 1fbc cbd3 f2bd ad41 03bd
00000160: e034 91bd 0eef a53c e62e d73c 0e23 0ebe
00000170: 942e 39be 951f abbd a689 86be 3c25 0ebd
00000180: a679 3dbe b8bc 23bd e72d 383c 61f5 b9bd
00000190: ba88 d2bd 9e7f 623d dcd9 b0bd 17eb 8abd
000001a0: f18e 84bd cd5e 0abe 6b54 99bd 4a31 083c
000001b0: 66ce bdbd 5b74 70be 5201 21be d15a c9bd
000001c0: 4713 ffbd af68 ba3a 37e9 61be 53b9 05bc
000001d0: 1474 1bbe 282c b8bc ac08 88bd cfc3 333d
000001e0: 545c e2bd c48a 2fbd 65c6 12be 78e9 a9bd
000001f0: ef3c 89bd fb64 173d 743c 0d3d 40ce d33c

encoder.conv_block.5.running_mean f4 [128]
-1.9510494 -7.695424 2.765911 -5.3217607 1.1628404 -0.9305612 12.180951 2.2490582
0.068310246 -2.8202379 9.853309 -2.0214927 2.3718324 0.3654151 -2.8820634 -5.8355036
-2.0411637 -4.5363407 -1.4218907 2.891622 -4.7370033 2.5204396 -7.902733 1.9433987
1.4345521 -8.565446 4.522414 1.2590946 2.7253995 -7.9647937 -8.471216 0.057075113
-6.0049057 -3.1413596 2.498282 -1.3658556 -3.555195 7.197363 9.329369 -6.2299137
0.9425026 -3.4321444 -1.4563613 -5.701756 -1.0760049 -4.064225 0.7946476 -0.7462783
-1.7515185 -2.9410903 7.205471 -7.791128 6.5174336 2.2394962 -5.6597867 2.0018344
-7.2733135 -1.3081369 0.5376162 -1.8569574 -2.9437373 -9.362351 -0.7593192 0.6297401
-1.5187447 -9.685065 1.7010484 -0.04314972 1.140464 -4.693931 -0.5027585 -6.1704307
0.0876334 -4.481274 -5.5797095 2.5679703 2.2397952 1.9720137 -1.6651663 1.395964
-0.49589565 2.7669485 12.781991 -1.6260818 -0.18741587 0.46868485 7.0106626 -3.0415175
-0.9984671 -0.97930336 -7.763965 -7.556023 0.12039532 -7.665181 -9.879696 2.3620467
0.2262685 11.9180975 4.8167076 1.0604163 -0.32321337 -3.6878924 0.27976406 0.9993976
0.86470073 4.660366 -0.314548 -1.4107941 3.0630243 -8.812285 2.316352 0.82988924
-9.4392 -11.117379 -1.6167634 0.7797993 7.848992 2.2075932 -0.22492225 -1.0937604
4.514329 0.20123403 0.80662745 2.5005393 1.4853156 -6.1950574 -5.180431 -4.836418
00000000: fdbb f9bf ea40 f6c0 b004 3140 dd4b aac0
00000010: f4d7 943f 4239 6ebf 2de5 4241 92f0 0f40
00000020: 3ee6 8b3d c77e 34c0 27a7 1d41 2360 01c0
00000030: 1acc 1740 b017 bb3e ba73 38c0 72bc bac0
00000040: 6da2 02c0 b429 91c0 8400 b6bf 5610 3940
00000050: 8895 97c0 e24e 2140 30e3 fcc0 4ac1 f83f
00000060: 679f b73f 110c 09c1 9eb7 9040 032a a13f
00000070: f26c 2e40 97df fec0 1a8a 07c1 98c7 693d
00000080: 3028 c0c0 090c 49c0 dae3 1f40 5bd4 aebf
00000090: 5188 63c0 cc50 e640 1845 1541 745b c7c0
000000a0: da47 713f 41a8 5bc0 0c6a babf c974 b6c0
000000b0: 87ba 89bf 220e 82c0 066e 4b3f 180c 3fbf
000000c0: c231 e0bf d33a 3cc0 3893 e640 ec50 f9c0
000000d0: d18e d040 e853 0f40 f91c b5c0 0e1e 0040
000000e0: fcbe e8c0 0871 a7bf 37a1 093f c8b0 edbf
000000f0: 3166 3cc0 31cc 15c1 be62 42bf a636 213f
00000100: 3a66 c2bf 07f6 1ac1 f4bb d93f c3bd 30bd
00000110: b9fa 913f af34 96c0 c8b4 00bf 2b74 c5c0
00000120: 2479 b33d 9966 8fc0 fb8c b2c0 a059 2440
00000130: ce58 0f40 f26a fc3f 2b24 d5bf f3ae b23f
00000140: 09e6 fdbe af15 3140 0983 4c41 7323 d0bf
00000150: f2e9 3fbe 76f7 ef3e 5957 e040 39a8 42c0
00000160: 8a9b 7fbf a0b3 7abf 6772 f8c0 f1ca f1c0
00000170: d291 f63d 2a49 f5c0 3c13 1ec1 c62b 1740
00000180: eeb2 673e 87b0 3e41 7822 9a40 b9bb 873f
00000190: 397c a5be 6e06 6cc0 3c3d 8f3e 85d8 7f3f
000001a0: 075d 5d3f b821 9540 6f0c a1be e794 b4bf
000001b0: 9708 4440 1fff 0cc1 1c3f 1440 9f73 543f
000001c0: f706 17c1 c9e0 31c1 1af2 cebf eda0 473f
000001d0: f12a fb40 3549 0d40 0552 66be 5700 8cbf
000001e0: 6275 9040 4b10 4e3e 237f 4e3f d608 2040
000001f0: d21e be3f e93d c6c0 17c6 a5c0 f0c3 9ac0

encoder.conv_block.5.running_var f4 [128]
43.938427 26.591803 23.072115 21.799997 17.846573 21.291384 33.711296 46.93166
12.140923 13.536982 32.421448 73.131935 14.93814 45.17019 19.117025 23.122824
31.970543 15.624472 12.4539175 23.299059 16.193533 10.391321 39.256542 40.604195
27.94781 30.759504 24.364285 20.644053 20.217218 36.612198 29.620724 22.771833
22.647835 18.41808 18.384314 21.18661 79.02175 23.172144 29.682981 35.02691
17.507835 10.057653 22.144047 23.176283 17.567747 18.677628 13.726786 9.628537
10.537922 33.505383 24.04936 64.33785 31.316948 23.845335 36.24782 15.853962
33.57898 17.569254 18.029366 13.392852 20.55464 40.466267 32.792995 27.622488
58.125694 28.580997 13.5885105 21.795887 15.28547 30.416965 21.151197 30.675884
19.675663 17.224623 31.286678 17.11639 51.04151 12.402991 14.629606 24.764027
17.21996 31.264881 47.49098 67.67512 24.07966 12.925811 20.651264 25.082312
14.561449 15.344308 42.178852 20.207153 53.354736 35.933533 49.70574 17.271223
18.868324 30.255165 19.25083 40.951443 13.931608 15.370221 30.051167 29.15546
16.563864 17.313309 17.991966 24.747015 23.846462 34.936234 33.09085 13.860665
66.080894 57.624523 20.56462 18.910534 21.83994 23.482658 22.302649 20.510553
24.886229 16.95938 11.56635 17.016214 20.951502 24.072327 19.202154 16.79775
00000000: f3c0 2f42 03bc d441 b193 b841 6566 ae41
00000010: c8c5 8e41 c154 aa41 5ed8 0642 05ba 3b42
00000020: 3841 4241 7a97 5841 90af 0142 8d43 9242
00000030: 9f02 6f41 46ae 3442 abef 9841 8bfb b841
00000040: acc3 ff41 d6fd 7941 3f43 4741 7964 ba41
00000050: 5b8c 8141 da42 2641 b306 1d42 b26a 2242
00000060: 1d95 df41 7713 f641 0eea c241 0527 a541
00000070: ddbc a141 e472 1242 3ef7 ec41 b72c b641
00000080: c42e b541 3a58 9341 1313 9341 2d7e a941
00000090: 230b 9e42 8d60 b941 bf76 ed41 8e1b 0c42
000000a0: 0c10 8c41 26ec 2041 0227 b141 0769 b941
000000b0: bf8a 8c41 c86b 9541 eaa0 5b41 7d0e 1a41
000000c0: 549b 2841 8305 0642 1765 c041 fbac 8042
000000d0: 1c89 fa41 3fc3 be41 c5fd 1042 d4a9 7d41
000000e0: e050 0642 d58d 8c41 243c 9041 1f49 5641
000000f0: e76f a441 75dd 2142 072c 0342 dbfa dc41
00000100: b680 6842 e2a5 e441 8a6a 5941 fa5d ae41
00000110: 4991 7441 f255 f341 a735 a941 3668 f541
00000120: c267 9d41 07cc 8941 1e4b fa41 5eee 8841
00000130: 822a 4c42 a772 4641 de12 6a41 ba1c c641
00000140: 7ac2 8941 7a1e fa41 c3f6 3d42 a959 8742
00000150: 25a3 c041 1fd0 4e41 ca35 a541 93a8 c841
00000160: b2fb 6841 4982 7541 25b7 2842 40a8 a141
00000170: 406b 5542 f0bb 0f42 aed2 4642 772b 8a41
00000180: 54f2 9641 940a f241 b301 9a41 47ce 2342
00000190: dee7 5e41 6dec 7541 ca68 f041 623e e941
000001a0: cb82 8441 a881 8a41 8cef 8f41 e3f9 c541
000001b0: 8ec5 be41 b4be 0b42 085d 0442 49c5 5d41
000001c0: 6b29 8442 837f 6642 5784 a441 c648 9741
000001d0: 32b8 ae41 7cdc bb41 d36b b241 9d15 a441
000001e0: ff16 c741 cfac 8741 c50f 3941 3521 8841
000001f0: ad9c a741 2094 c041 039e 9941 cb61 8641

encoder.fc.weight f4 [128, 128]
-0.12698287 -0.09530155 0.15886426 -0.09556407 -0.15731397 -0.12419242 -0.13896476 0.14668676
-0.08448735 0.06945286 0.023174098 -0.03825307 -0.013295672 -0.05851538 0.24055709 0.123498954
0.005200194 0.078092195 -0.043098297 -0.017155536 -0.19920126 -0.119310625 0.0083408775 0.09973506
0.116709225 0.018868513 0.019194856 -0.1532551 -0.056983814 -0.06520421 0.045578357 -0.038425475
-0.08943735 0.1903465 0.13992666 0.07587712 -0.012217041 -0.034722533 -0.060130782 -0.05928963
-0.20394693 0.05296714 -0.1721837 -0.0012911886 -0.046437144 0.15137832 0.0925557 -0.16188279
-0.091571875 -0.05875501 0.18350217 -0.04227241 0.14870867 0.07846934 0.016474178 -0.02454125
0.007753797 0.17153934 0.13472438 -0.034698557 0.15711425 -0.013958554 0.000517092 -0.103823416
0.05807249 0.051582996 -0.13798605 0.15596668 -0.20475392 -0.020642163 0.09656498 -0.05819238
-0.03677352 -0.04084439 0.073104486 -0.102145925 0.07177678 -0.10776343 0.03612452 0.1341765
-0.099485174 0.080196895 -0.02725867 -0.0127483765 -0.10735449 0.019567998 0.033553213 -0.06459068
0.007323566 0.20481077 -0.005916436 0.057022512 0.09155776 -0.034544118 0.021002831 -0.1630824
0.168189 -0.1540995 -0.13263817 0.17619486 0.12574631 -0.17082173 0.109334625 -0.14022912
-0.0860216 -0.11310169 0.08872126 0.23242797 0.061766636 -0.121580176 0.029171607 -0.04550757
0.058698293 0.010423871 0.21431148 -0.23007546 -0.005196906 -0.15278997 -0.017544728 0.13205472
0.19691244 -0.14793834 0.080842085 -0.087288685 0.008044102 -0.12550072 0.08533605 0.1651971
-0.051212106 0.1714639 -0.05506649 0.051438823 -0.07396983 -0.031873204 -0.13225082 -0.024525618
-0.011743684 0.03222087 -0.0425955 -0.05393269 -0.13688931 -0.016208837 0.04205615 0.17905751
0.06038528 0.10618222 0.021588406 -0.08817115 0.0570247 -0.11250406 -0.0913376 -0.06257399
-0.07233313 0.017676547 -0.0056763454 -0.03493682 0.019838495 0.06506947 0.13788527 -0.11191826
-0.01967046 0.11411023 0.005169451 0.045122642 0.012033072 0.011727143 -0.10588942 -0.069628835
-0.07970052 -0.003750602 0.0076885326 0.08159664 0.051161367 0.09836887 -0.0127304485 0.009929468
0.008275616 0.025967177 -0.06704068 0.072988905 0.0020667182 0.12126976 -0.039633736 -0.121788025
-0.013782357 0.016357701 0.05069013 0.06178925 0.091473565 0.077241674 -0.090079464 -0.010598941
-0.06497534 -0.030135764 -0.036376204 0.10442842 -0.038299438 -0.021211352 -0.025209708 0.019715454
0.025870707 0.032583572 0.18291913 -0.07879298 0.055708032 0.013264109 0.031951535 0.022141078
-0.0053294734 -0.06545968 -0.24003688 0.0074219136 -0.12014018 -0.060838606 0.05271099 -0.019166779
-0.015522393 0.026236815 0.05157757 -0.0113422 -0.016811883 0.044295218 0.02709672 0.029650187
-0.020093985 -0.07547784 -0.06001746 -0.029000267 0.06512398 0.009963664 0.014816323 -0.07741001
-0.09898725 -0.10193794 -0.006593127 0.0938885 -0.02736281 0.009786997 -0.056370445 -0.074921064
0.03901423 0.016121818 0.034951415 -0.089004785 -0.037348107 -0.013814549 0.05997158 -0.01052067
0.06481733 -0.15840523 0.045479562 -0.05352511 -0.10777298 0.049541086 0.057870634 0.12046587
00000000: cc07 02be 762d c3bd 50ad 223e 18b7 c3bd
00000010: ea16 21be 9858 febd c74c 0ebe 0e35 163e
00000020: b407 adbd 4d3d 8e3d 9bd7 bd3c 40af 1cbd
00000030: 17d6 59bc d3ad 6fbd 9954 763e 05ed fc3d
00000040: 6466 aa3b cdee 9f3d d787 30bd c489 8cbc
00000050: 6afb 4bbe 2159 f4bd 2da8 083c e541 cc3d
00000060: 3f05 ef3d 2492 9a3c 883e 9d3c e8ee 1cbe
00000070: dc67 69bd c989 85bd 5fb0 3a3d 0864 1dbd
00000080: ee2a b7bd 31ea 423e ef48 0f3e 7765 9b3d
00000090: fc29 48bc 3739 0ebd b24b 76bd afd9 72bd
000000a0: 77d7 50be 12f4 583d ed50 30be 1a3d a9ba
000000b0: e034 3ebd eb02 1b3e d88d bd3d 9ac4 25be
000000c0: 098a bbbd 18a9 70bd fee7 3b3e d625 2dbd
000000d0: 1647 183e 89b4 a03d dbf4 863c bb0a c9bc
000000e0: 9013 fe3b 02a8 2f3e 30f5 093e 1320 0ebd
000000f0: 8fe2 203e 6bb2 64bc 758d 073a 5fa1 d4bd
00000100: 6bdd 6d3d b148 533d 374c 0dbe bbb5 1f3e
00000110: 03ab 51be c119 a9bc dcc3 c53d 225b 6ebd
00000120: d59f 16bd 724c 27bd ceb7 953d e231 d1bd
00000130: b4ff 923d 13b3 dcbd 4ef7 133d 9065 093e
00000140: e2be cbbd 453e a43d 934d dfbc 91de 50bc
00000150: acdc dbbd 114d a03c 186f 093d 1e48 84bd
00000160: 86fa ef3b eab9 513e aade c1bb 7090 693d
00000170: a382 bb3d 227e 0dbd 210e ac3c 13ff 26be
00000180: bd39 2c3e 42cc 1dbe 4dd2 07be 6d6c 343e
00000190: a4c3 003e e4eb 2ebe d5ea df3d 3998 0fbe
000001a0: 182c b0bd dca1 e7bd 7eb3 b53d 9901 6e3e
000001b0: 03ff 7c3d 07ff f8bd 4bf9 ee3c 2566 3abd
000001c0: 9f6d 703d e2c8 2a3c 7874 5b3e e798 6bbe
000001d0: cf4a aabb f974 1cbe f6b9 8fbc 5a39 073e
000001e0: 6aa3 493e 267d 17be 8990 a53d 69c4 b2bd
000001f0: 69cb 033c 4383 00be abc4 ae3d 6e29 293e
00000200: c9c3 51bd 3c94 2f3e 668d 61bd 84b1 523d
00000210: 7f7d 97bd 7a8d 02bd c26c 07be f3e9 c8bc
00000220: 9568 40bc 08fa 033d 9e78 2ebd 86e8 5cbd
00000230: b62c 0cbe 65c8 84bc 1243 2c3d da5a 373e
00000240: 8e56 773d 1076 d93d 2bda b03c 1393 b4bd
00000250: bb92 693d 8768 e6bd 350f bbbd cb26 80bd
00000260: 6423 94bd 68ce 903c a300 babb e919 0fbd
00000270: 5784 a23c 2443 853d cc31 0d3e 6735 e5bd
00000280: f223 a1bc a0b2 e93d 7f64 a93b 85d2 383d
00000290: 5d26 453c 3423 403c 8ddc d8bd 9099 8ebd
000002a0: 073a a3bd a9cc 75bb 16f0 fb3b 241c a73d
000002b0: 958e 513d 9e75 c93d 5f93 50bc 35af 223c
000002c0: 7396 073c 1eb9 d43c a04c 89bd 357b 953d
000002d0: c771 073b 485c f83d fc56 22bd 006c f9bd
000002e0: 65cf 61bc 9600 863c 74a0 4f3d b916 7d3d
000002f0: 7e56 bb3d e230 9e3d 957b b8bd 2ea7 2dbc
00000300: cb11 85bd 47df f6bc 37ff 14bd 91de d53d
00000310: dfdf 1cbd 6ec3 adbc 9784 cebc 4e82 a13c
00000320: ceee d33c 5a76 053d 274f 3b3e 375e a1bd
00000330: 1b2e 643d b551 593c 9ddf 023d 3561 b53c
00000340: dda2 aebb ba0f 86bd 3acc 75be 8633 f33b
00000350: 0e0c f6bd e731 79bd 7be7 573d a603 9dbc
00000360: a351 7ebc 97ee d63c 0143 533d a3d4 39bc
00000370: 13b9 89bc e76e 353d f1f9 dd3c f3e4 f23c
00000380: 249c a4bc 2094 9abd ded4 75bd f891 edbc
00000390: b95f 853d a33e 233c 2ac0 723c 2489 9ebd
000003a0: d4b9 cabd d7c4 d0bd 280b d8bb 9d48 c03d
000003b0: f927 e0bc a459 203c b2e4 66bd 3770 99bd
000003c0: 63cd 1f3d e711 843c 3729 0f3d 2448 b6bd
000003d0: 54fa 18bd 6b56 62bc c2a4 753d e35e 2cbc
000003e0: f3be 843d fb34 22be c748 3a3d 253d 5bbd
000003f0: 15b8 dcbd 98eb 4a3d c209 6d3d cfb6 f63d

encoder.fc.bias f4 [128]
0.1090558 -0.03744526 -0.07221073 0.016467681 -0.20748621 -0.07562914 0.08436165 -0.13493559
0.07550912 0.05508211 -0.19689794 0.07136741 -0.08193131 0.06514367 -0.106005386 0.18594098
-0.043359287 0.17186965 -0.23069374 -0.07870933 -0.14814429 -0.15902604 -0.06840439 0.03328862
-0.24803303 -0.22754669 0.013517778 0.0022120355 0.13356914 0.15263349 -0.04472577 -0.15226993
-0.031029908 0.07613992 -0.06816505 0.06493032 -0.025312226 -0.14760928 0.11158339 0.07644941
-0.046799757 0.12475373 0.0032700137 0.13238992 0.084746644 0.25585645 -0.21045783 -0.20307025
-0.03776257 -0.089167446 0.04308159 0.18902019 0.18395339 -0.026934365 0.134639 -0.07887924
0.11809059 0.05001315 0.15310709 0.2253849 0.21061234 0.20094237 0.20156164 0.02803936
-0.11986565 -0.17230634 0.06767815 -0.022302685 0.072856516 0.024727074 0.14571077 0.19063257
-0.23514937 -0.04793349 -0.13603604 0.07534259 0.051239017 0.023307748 0.055236373 0.07416472
-0.20842859 0.00088303344 -0.085127614 -0.009594614 0.050037503 0.034295917 0.20123234 -0.08095191
0.0039659934 0.009083227 0.08126885 0.1733047 0.06961205 -0.019836582 -0.2119179 0.04772726
0.051181268 -0.07049245 -0.21307942 0.08100433 -0.02031055 0.14738367 0.1166626 0.12287181
0.1492209 0.004417599 -0.20012918 -0.10714067 -0.05524476 -0.07094063 0.09513477 0.15380536
0.20349596 -0.14874955 0.15169013 0.07467956 0.045193736 -0.0043695704 0.05823381 0.106499895
0.12538065 -0.01547629 -0.1606795 0.01310111 0.19398986 0.09909377 0.04757226 0.09765634
00000000: a658 df3d 3360 19bd 38e3 93bd 3be7 863c
00000010: 4477 54be 73e3 9abd cdc5 ac3d 8e2c 0abe
00000020: 87a4 9a3d c79d 613d 9d9f 49be 1429 923d
00000030: 9acb a7bd 0b6a 853d 5a19 d9bd 5067 3e3e
00000040: 8299 31bd 99fe 2f3e fb3a 6cbe 5b32 a1bd
00000050: 23b3 17be b9d7 22be 9a17 8cbd a659 083d
00000060: 5ffc 7dbe 0002 69be ac79 5d3c ccf7 103b
00000070: 59c6 083e f44b 1c3e 5e32 37bd a6ec 1bbe
00000080: 6f32 febc 3fef 9b3d 1e9a 8bbd 30fa 843d
00000090: 965b cfbc e326 17be d585 e43d 8291 9c3d
000000a0: 1ab1 3fbd e27e ff3d ba4d 563b 3991 073e
000000b0: a68f ad3d 9eff 823e 4282 57be a6f1 4fbe
000000c0: edac 1abd 6c9d b6bd 5276 303d 828e 413e
000000d0: 475e 3c3e 75a5 dcbc cede 093e 708b a1bd
000000e0: 7bd9 f13d 97da 4c3d 1bc8 1c3e 4dcb 663e
000000f0: c3aa 573e d6c3 4d3e 2d66 4e3e cdb2 e53c
00000100: 1f7c f5bd 1371 30be d89a 8a3d 1fb4 b6bc
00000110: cc35 953d 6f90 ca3c 3435 153e 2f35 433e
00000120: ffca 70be e855 44bd 084d 0bbe 374d 9a3d
00000130: 01e0 513d e4ef be3c 893f 623d ace3 973d
00000140: 4e6e 55be 5f7b 673a 6357 aebd ba32 1dbc
00000150: 20f4 4c3d e079 0c3d da0f 4e3e 1dca a5bd
00000160: 2af5 813b d1d1 143c 4870 a63d ca76 313e
00000170: c390 8e3d 5480 a2bc 0201 59be a97d 433d
00000180: 73a3 513d 585e 90bd 7e31 5abe 99e5 a53d
00000190: 5062 a6bc bfeb 163e cdec ee3d 37a4 fb3d
000001a0: 5dcd 183e 82c1 903b aaee 4cbe 916c dbbd
000001b0: 5448 62bd 5249 91bd 05d6 c23d 277f 1d3e
000001c0: 3f61 503e cd51 18be a854 1b3e 99f1 983d
000001d0: 111d 393d 9d2e 8fbb 9386 6e3d 9e1c da3d
000001e0: c963 003e 4490 7dbc 2b89 24be 0aa6 563c
000001f0: 47a5 463e adf1 ca3d 21db 423d 0c00 c83d
